model/sci_512x512.onnx (onnx, 36005 bytes, 6 tensors)

enhance.out_conv.0.weight f4 [3, 3, 3, 3]
-0.15964617 0.16142282 -0.04808744 0.2600148 1.1436478 0.050670724 -0.04480391 0.14960714
-0.15930904 -0.021458372 0.06153285 0.033833556 0.018191746 0.606047 0.04416491 -0.052999776
0.017774127 -0.01821768 0.116608925 -0.05930829 0.15317032 -0.2964087 -0.05129593 0.07080354
-0.055013508 -0.21143067 0.10414141 -0.061139967 -0.14900044 -0.09401405 0.3020468 0.7066923
-0.27201378 0.0728788 0.01958411 -0.032335028 -0.02973158 -0.06566167 0.0022047302 0.08007637
0.5464083 -0.17094691 0.0124458 -0.08237651 0.018346114 0.057090852 0.027816538 0.14773373
-0.17782564 0.43677223 -0.024633406 -0.088035576 -0.19566596 0.06937542 0.0814596 0.10969288
0.12569839 -0.2912037 0.17895773 0.016505599 -0.034109157 -0.22408858 0.10674372 0.0074634524
0.06418372 -0.049345005 -0.08658693 0.55006874 0.020012388 0.0052875793 -0.1160888 -0.057516046
0.00776566 0.161951 -0.25411046 0.30217603 1.3013377 0.07099368 0.12035126 0.071844496
-0.2361992
00000000: 497a 23be 064c 253e 56f7 44bd a920 853e
00000010: 0d63 923f 1b8c 4f3d 4e84 37bd 9d32 193e
00000020: e921 23be 78c9 afbc df09 7c3d 0e95 0a3d
00000030: db06 953c e525 1b3f 44e6 343d 4b16 59bd
00000040: 0c9b 913c 3e3d 95bc a9d0 ee3d 40ed 72bd
00000050: aed8 1c3e e2c2 97be ae1b 52bd 7201 913d
00000060: d855 61bd 4881 58be 1748 d53d e76d 7abd
00000070: 9293 18be 708a c0bd e1a5 9a3e c9e9 343f
00000080: 6445 8bbe 7b41 953d db6e a03c bc71 04bd
00000090: a48f f3bc a079 86bd 3c7d 103b 14ff a33d
000000a0: 6ae1 0b3f b50c 2fbe 78e9 4b3c 04b5 a8bd
000000b0: 974a 963c 19d8 693d 82df e33c 8347 173e
000000c0: ed17 36be 9ca0 df3e ffcb c9bc ff4b b4bd
000000d0: a85c 48be b314 8e3d 4ad4 a63d a9a6 e03d
000000e0: 14b7 003e a718 95be b240 373e c036 873c
000000f0: 0bb6 0bbd 7a77 65be 749c da3d fa8f f43b
00000100: c172 833d fd1d 4abd 7d54 b1bd 4ed1 0c3f
00000110: 05f1 a33c 6e43 ad3b f7bf edbd f295 6bbd
00000120: 1477 fe3b 7cd6 253e c41a 82be d1b6 9a3e
00000130: 3c92 a63f 2265 913d b97a f63d 3523 933d
00000140: 34de 71be

enhance.out_conv.0.bias f4 [3]
0.070227414 -0.1919635 0.05437532
00000000: 64d3 8f3d 1492 44be a8b8 5e3d

enhance.out_conv.2.weight f4 [3, 3, 3, 3]
-0.07411276 0.10211222 -0.029764807 0.12369574 0.42165253 0.019720387 -0.12581281 -0.09428189
-0.087887004 -0.18964301 0.0029690047 0.06698584 -0.10824157 0.54455876 0.2669094 -0.12007232
-0.13036674 0.07246473 -0.14261575 -0.17850761 -0.014850209 0.020512355 0.49087402 -0.021194918
0.03738462 0.3403649 0.17017189 -0.09496772 0.30942068 -0.028186385 0.13977925 0.7895889
0.12999028 -0.026715243 0.19639233 -0.18654071 -0.04128627 0.14171857 0.081337415 -0.081404775
0.6338723 0.25328067 0.027378188 0.084585406 -0.03802658 0.092311874 -0.2941231 -0.070032395
0.075605184 -0.063256316 -0.13004413 0.088834904 0.14526647 0.064087115 0.020776736 -0.44156256
-0.14340656 -0.07462449 0.21396092 -0.14932233 0.12861218 0.21093509 0.07165066 0.15057932
-0.31695327 -0.050289445 -0.20428203 0.7026864 0.10324414 0.041277133 0.14870462 -0.007057293
-0.058091253 -0.0431337 0.20333976 0.0025087653 1.2777933 0.09100505 -0.32273158 0.21873842
-0.13664906
00000000: 6ec8 97bd 3620 d13d 53d5 f3bc 3154 fd3d
00000010: d7e2 d73e a68c a13c 13d5 00be dd16 c1bd
00000020: 1afe b3bd c731 42be a293 423b df2f 893d
00000030: c2ad ddbd 3468 0b3f 59a8 883e 7ae8 f5bd
00000040: dc7e 05be 6368 943d dd09 12be b3ca 36be
00000050: 4a4e 73bc 8709 a83c d753 fb3e f7a0 adbc
00000060: 9e20 193d 4f44 ae3e 8a41 2e3e 707e c2bd
00000070: 636c 9e3e 22e7 e6bc 4b22 0f3e 8022 4a3f
00000080: 2c1c 053e edd9 dabc 121b 493e 8704 3fbe
00000090: cb1b 29bd ac1e 113e 3b94 a63d 8cb7 a6bd
000000a0: 7445 223f 01ae 813e 3948 e03c 1d3b ad3d
000000b0: c2c1 1bbd 020e bd3d 4e97 96be 256d 8fbd
000000c0: e4d6 9a3d 878c 81bd 4a2a 05be 13ef b53d
000000d0: bcc0 143e 1b40 833d f933 aa3c 7d14 e2be
000000e0: 2bd9 12be bad4 98bd 9218 5b3e f4e7 18be
000000f0: e9b2 033e 5eff 573e 95bd 923d 7731 1a3e
00000100: b347 a2be 4efc 4dbd 4f2f 51be 42e3 333f
00000110: aa71 d33d 3612 293d 0646 183e dd40 e7bb
00000120: 18f1 6dbd f6ac 30bd 4c38 503e 196a 243b
00000130: bb8e a33f db60 ba3d 133d a5be f7fc 5f3e
00000140: bbed 0bbe

enhance.out_conv.2.bias f4 [3]
0.07892611 0.07687749 0.19984603
00000000: 03a4 a13d f271 9d3d 70a4 4c3e

enhance.out_conv.4.weight f4 [3, 3, 3, 3]
-0.08372056 0.20636894 0.2048521 -0.058908105 -0.66755337 -0.17427137 0.0049924864 -0.13605893
0.025121123 0.116501205 -0.2519276 0.014119132 -0.030240588 -1.0706824 -0.30952358 0.08774509
-0.34101132 -0.0028072344 -0.05556795 -0.13527578 -0.07168747 0.117759295 -0.40864867 0.28465906
-0.020020971 0.48812306 -0.018922772 -0.07134497 -0.013634207 0.04009759 -0.09283932 -0.5051852
-0.08936977 -0.028131839 -0.05961297 0.05155608 -0.0008584349 -0.13756263 -0.028211271 -0.058498263
-0.45247024 -0.12689301 0.006093976 -0.07354776 -0.016404947 0.050919093 -0.14267081 0.023636013
0.005506285 -0.90412736 0.08102312 0.007121603 0.22630863 -0.06738839 -0.073629536 -0.21626084
-0.15317193 -0.1417516 -0.3401785 -0.0101603335 -0.10467858 0.05925382 0.07142854 -0.11513839
-0.030000499 -0.0817651 -0.030252712 0.25056443 0.11370864 -0.06286173 0.23278195 -0.035491247
0.13997369 -0.11855686 0.11144512 -0.08930461 -1.3807521 -0.10683753 0.018922428 -0.08010607
-0.13056889
00000000: af75 abbd 6152 533e c0c4 513e a049 71bd
00000010: c7e4 2abf 3274 32be 0398 a33b 0853 0bbe
00000020: d0ca cd3c 2f98 ee3d a8fc 80be ef53 673c
00000030: 1cbb f7bc 1f0c 89bf e079 9ebe b3b3 b33d
00000040: 0999 aebe 94f9 37bb 389b 63bd bc85 0abe
00000050: e1d0 92bd c92b f13d 663a d1be d5be 913e
00000060: 0503 a4bc 44eb f93e ee03 9bbc 501d 92bd
00000070: 0262 5fbc 5f3d 243d 8b22 bebd d153 01bf
00000080: 7f07 b7bd be74 e6bc bb2c 74bd 782c 533d
00000090: 9708 61ba 38dd 0cbe 531b e7bc e09b 6fbd
000000a0: 2eaa e7be 3ef0 01be faaf c73b 35a0 96bd
000000b0: ab63 86bc 8a90 503d 4c18 12be 50a0 c13c
000000c0: 116e b43b e474 67bf 73ef a53d 565c e93b
000000d0: 73bd 673e ed02 8abd 15cb 96bd 7b73 5dbe
000000e0: 1ad9 1cbe 5527 11be e02b aebe 8777 26bc
000000f0: b961 d6bd 22b4 723d 2049 923d adcd ebbd
00000100: 9bc3 f5bc 7674 a7bd 89d4 f7bc fb49 803e
00000110: 13e0 e83d a7bd 80bd 645e 6e3e 455f 11bd
00000120: 4355 0f3e f0cd f2bd 573d e43d 56e5 b6bd
00000130: 7cbc b0bf a3cd dabd 3503 9b3c a70e a4bd
00000140: dab3 05be

enhance.out_conv.4.bias f4 [3]
-0.050018605 -0.12841225 -0.1603595
00000000: 4fe0 4cbd 807e 03be 4835 24be
